iris_model.pt (torch, 2527 bytes, 4 tensors)

fc.0.weight f4 [30, 4]
00000000: 8365 62bf 4537 8dbf 4bf0 e33f 71b0 9540
00000010: 6e37 033f d101 0b40 4c9d f8bf a104 27c0
00000020: 2694 8abe 0a04 e7be f42e 323e b67d a63e
00000030: aafc 87be 4acb b4be 08de 82be 84c3 19be
00000040: 243e b7be 8c4b 3ebe 6081 e8bd 769c b7be
00000050: 969a 64be e39a 3abf cb8c eabc c621 e13e
00000060: d864 dabd 08e9 133e 0a34 bebe 703a 5dbd
00000070: 2dbb 0ebf cc69 e2be a402 13bf 19a9 8bbf
00000080: c439 12bf e2fb 1cbf 387d 2cbf 7bd2 e8be
00000090: 0a60 48be fd73 45bf f6eb 3fbe 4b8f 51bf
000000a0: 55d1 e7be 99aa cdbe 52b8 c6be 393a 76bf
000000b0: 0666 e9be 50fe 463e 82c4 a3be 781a 8e3d
000000c0: bd03 b4be 8f22 e5be 5bc8 1ebf 665a 28bf
000000d0: 5636 adbe 4c9a bebe 4848 2e3e 00fc a83e
000000e0: 5845 f5be 6c02 a8be bcce 18be 6657 cf3e
000000f0: 77cf 64bf b1d2 49be 167f d8be 4d1d 42be
00000100: 3074 09bf 8215 0cbf 1aa6 0dbe cda7 0d3e
00000110: fba7 b53f d8a0 a13f 541e 06c0 b8c8 60c0
00000120: 00b6 edbc ba03 c3be ae4a c4be 3cf1 65be
00000130: ac6f 2abf 205c 77bf 67d9 a0bd f6aa 1ebf
00000140: 80f6 cbbe 069f adbe 3212 bd3e c00b 453e
00000150: 8002 2bbc 58d4 243e 0e80 85be 1059 b93e
00000160: 7ad4 dbbe 3ea0 dc3e 742b bebe 50f4 5cbd
00000170: 9ce9 7abe 6cf0 73be 8ae5 dcbe 4ef0 8f3e
00000180: d089 09be ec32 4dbe 200a e0bd 623e 81be
00000190: 40c3 d1be fc7c 0c3e ac5b 103e 2e0f e2be
000001a0: 6c4d 04be 6893 1fbe 18d3 98be f8a4 a23e
000001b0: 08ee fcbe 7835 1fbe ecce 37be 805a cf3e
000001c0: 686d 1abf 0a86 9abe 2950 64be a20b b5be
000001d0: b4cb cabe 4d83 65bf 701a 67bf 04ff b8be
-0.88436145 -1.1032492 1.7807707 4.6777883 0.51256454 2.1719859 -1.9423003 -2.6096575
-0.27066153 -0.4512027 0.17400724 0.32517785 -0.26559955 -0.35311347 -0.2556002 -0.1501599
-0.35789597 -0.18583506 -0.11352801 -0.35861558 -0.22324595 -0.7289259 -0.028631588 0.4397108
-0.10663766 0.14444363 -0.37149078 -0.05401081 -0.5575436 -0.44221342 -0.57425904 -1.091098
-0.57119393 -0.6132184 -0.6737857 -0.45473084 -0.19567886 -0.7713011 -0.18742356 -0.8185927
-0.45276895 -0.40169218 -0.388125 -0.9618259 -0.4558565 0.1943295 -0.3198586 0.06938642
-0.35159102 -0.4475293 -0.6202447 -0.6576294 -0.33830518 -0.37227094 0.1701976 0.3300476
-0.47904468 -0.32814348 -0.14922613 0.40496367 -0.89379066 -0.19709279 -0.4228446 -0.1895649
-0.53692913 -0.5472032 -0.13832894 0.13833542 1.4191889 1.2627211 -2.095601 -3.512251
-0.029017448 -0.3808878 -0.38338226 -0.22455305 -0.6657665 -0.96624947 -0.07853966 -0.61979616
-0.39836502 -0.33910388 0.36927944 0.19242764 -0.010437608 0.16096628 -0.2607426 0.36200762
-0.42935544 0.43091005 -0.37142527 -0.053943932 -0.24503177 -0.23822182 -0.43143874 0.28113025
-0.13431478 -0.20038956 -0.10939431 -0.25242907 -0.40969276 0.13719553 0.1409747 -0.44152206
-0.12920159 -0.15583575 -0.29848552 0.31766486 -0.49400353 -0.1554774 -0.17950028 0.40498734
-0.6032319 -0.3018039 -0.22296204 -0.35360438 -0.39608538 -0.89653474 -0.90274715 -0.3613206

fc.0.bias f4 [30]
00000000: bccf 96c0 a2fa 673f 1062 68bd d076 473d
00000010: 16fe 8bbe 2b09 2cbf c8cc eebe 1b19 74be
00000020: d709 10bf e8e9 5abf 3cd9 37be f4b6 11be
00000030: 22ec 21bf 1c46 3cbe 6656 803e 3a2a edbe
00000040: 1cf1 6bbf 9a78 8a40 5c38 d13e 0bf8 61bf
00000050: 289a f7bd 34c6 eabe 2479 2c3e 0c9e 223e
00000060: 6c93 c83e d8ee 823d 3221 a3be c2f6 f3be
00000070: 946b 54be e8b9 17bf
-4.712858 0.9061681 -0.056734145 0.048697293 -0.2734229 -0.6720149 -0.4664061 -0.23837702
-0.56265014 -0.8551316 -0.17953962 -0.14229947 -0.63250935 -0.1838612 0.25065917 -0.4632128
-0.9216478 4.327222 0.4086331 -0.8826911 -0.1208995 -0.45854342 0.16843086 0.15880603
0.39174974 0.06393212 -0.31861264 -0.476492 -0.20744163 -0.59268045

fc.2.weight f4 [3, 30]
00000000: e857 6bc0 ef9b 1940 59ea bc3c fd38 edbd
00000010: 13b3 47bd 106d 81bf 965e 5b3d 34ea 5d3e
00000020: dd8b 703d f010 3abf 9f2c 133f 4ccb c5bd
00000030: 2143 413e fd64 d0bd 19a3 dbbd e7d3 1bbf
00000040: c39d 7fbf b53a a23e c300 7a3d 7e50 22bf
00000050: e14b 09bd ce0b 033e 94ce 8c3d dda2 403d
00000060: 757e 1f3e 7af9 b73d 815f 883d 900b 303e
00000070: 9bf9 40bf d0b7 ef3d 8330 e8be bf56 8dbf
00000080: 2317 93bd 3396 acbd 9b29 7ebc 7828 b03e
00000090: 0a3a c63c 0fa2 98bb b9fb 863d 4a98 883d
000000a0: 9641 e03e c024 563d 956e 8c3d cbc2 2f3d
000000b0: 306e f1bd 9e2c 06bf cb5d 813e 214d 883f
000000c0: 4160 eabd 59dc f2be 0322 1abe 997b f93d
000000d0: c241 053e 9f15 1a3e 811a 9e3d 78d2 34be
000000e0: 44f5 01be e001 203e 6326 84be a786 613e
000000f0: 6dcf 633f db2f c7bd d11d 39be 830e f63d
00000100: acdd 403d 928d 943c 562c 9cbd 4d50 85be
00000110: 33ac 6b3e e376 ec3c 69a9 10bf ab93 61bd
00000120: edd6 a7bd e3f6 14bd 991c 86bd a65d ee3e
00000130: d7e6 973d 64cc cdbf 6d85 acba 1177 e13e
00000140: f191 b33d 91a5 6bbd 4eb7 a93d 444f 273e
00000150: 79b9 dabd 5e78 cebd 8a86 2ebe 81b1 babd
00000160: a303 733e 4d9c a2bd
-3.6772404 2.4001424 0.023060964 -0.11583135 -0.048754763 -1.0111408 0.053557 0.21671373
0.058727134 -0.72682095 0.5748996 -0.096579164 0.18873264 -0.10175512 -0.10724468 -0.6087021
-0.998501 0.31685415 0.061035883 -0.6340407 -0.03351963 0.12797472 0.06875339 0.04703032
0.15575583 0.08983131 0.06658841 0.1719191 -0.7538087 0.11704981 -0.45349512 -1.1042098
-0.07182147 -0.08427086 -0.015512849 0.34405875 0.024197597 -0.0046579908 0.06590981 0.06669672
0.43800038 0.05228114 0.06857029 0.04291038 -0.11788595 -0.5241183 0.2526687 1.0648538
-0.1144414 -0.47433737 -0.15052037 0.121817775 0.13013366 0.1504731 0.07719899 -0.17658412
-0.12691218 0.15625715 -0.25810537 0.22024022 0.8898838 -0.097259246 -0.1807778 0.12014487
0.047086403 0.018133912 -0.07625644 -0.26037827 0.23014908 0.028865283 -0.565085 -0.055072468
-0.08195291 -0.036368262 -0.06548423 0.46555823 0.07417076 -1.6078 -0.0013162323 0.44036153
0.087680705 -0.057530943 0.08286916 0.16338831 -0.10679907 -0.10081552 -0.1704351 -0.091158874
0.23731856 -0.07939968

fc.2.bias f4 [3]
00000000: 0d14 0fc0 40a5 0840 6a22 e4bf
-2.2355988 2.135086 -1.7823002
